sum_and_difference/example_network.onnx (onnx, 2665 bytes, 6 tensors)

conv.weight f4 [4, 1, 4]
0	0xbf11ae92	-0.56907
1	0xbeb808b5	-0.35944143
2	0x3f144395	0.5791562
3	0x3ec0a8af	0.37628695
4	0x3e9bd265	0.30433956
5	0x3e223a2d	0.15842505
6	0x3e076d24	0.13225228
7	0x3e029840	0.12753391
8	0x3f0bb7aa	0.54577124
9	0x3e96faf5	0.2948834
10	0xbe8c3abc	-0.2738856
11	0x3ee14571	0.43998292
12	0xbe984111	-0.29737142
13	0x3ea9a2a3	0.33131894
14	0x3ed72f44	0.42028248
15	0x3f1d8a73	0.6153938

conv.bias f4 [4]
0	0xbd2e2793	-0.04251821
1	0xbda347ac	-0.07972655
2	0x3e6cc138	0.23120582
3	0x3e2d078b	0.16897409

fc1.weight f4 [32, 8]
0	0x3d98e67e	0.07465838
1	0xbc990df6	-0.018683415
2	0x3e2ae6dc	0.16689628
3	0xbdc40eee	-0.0957316
4	0x3ea5279f	0.3225679
5	0x3cacc141	0.021088244
6	0x3d9e7d84	0.07738784
7	0x3eddd3e5	0.43325725
8	0xbe5988ba	-0.21243563
9	0xbdf2bce7	-0.118524365
10	0x3e94ccd1	0.29062513
11	0x3ecce69a	0.40019685
12	0x3ea151e9	0.31507805
13	0x3e844a08	0.2583773
14	0x3d18a992	0.03727109
15	0x3e46a43b	0.19398586
16	0x3d557c10	0.05212027
17	0x3dbb5588	0.09147173
18	0xbe148bc0	-0.14506435
19	0x3dc5adcc	0.0965229
20	0xbe89d4d5	-0.2692019
21	0xbe974e38	-0.29551864
22	0xbe610e14	-0.21978027
23	0x3e6a67fe	0.22891232
24	0xbe597f6c	-0.21240014
25	0x3dc88ca9	0.09792454
26	0xbe643193	-0.22284536
27	0x3eac0684	0.3359872
28	0x3eaab119	0.3333824
29	0x3da77787	0.08177095
30	0x3e2c8b8c	0.16850108
31	0xbd46cf20	-0.048537374
32	0xbe2638f6	-0.16232666
33	0xbeb77588	-0.35831857
34	0xbe8969ed	-0.26838627
35	0x3da7f1f7	0.08200448
36	0x3debb45b	0.115090095
37	0xbdd15d60	-0.10222888
38	0xbe34c40d	-0.17652912
39	0xbe04f7ad	-0.12985106
40	0xbe759e99	-0.23986281
41	0x3ea925d2	0.33036667
42	0x3e4d7372	0.2006357
43	0x3dd4a580	0.10383129
44	0x3e7c67e6	0.24649009
45	0x3edf10f4	0.43567622
46	0x3ee0dd78	0.43918967
47	0xbdd8d94e	-0.105883226
48	0x3f1fd5df	0.62435716
49	0xbe8481b6	-0.25880212
50	0x3e87878a	0.26470596
51	0xbe508e57	-0.20366798
52	0x3d95a6d6	0.07307212
53	0x3d677368	0.056506544
54	0xbeb52570	-0.35380125
55	0xbbc95a00	-0.006144762
56	0x3e329f06	0.17443475
57	0x3dffe018	0.12493914
58	0x3ee6b193	0.45057353
59	0x3d9f2fa2	0.07772757
60	0x3ed76079	0.4206579
61	0xbe4b33fd	-0.1984405
62	0x3ed14e45	0.40880027
63	0x3d6fa9f6	0.058511697
64	0x3f407b07	0.75187725
65	0x3dcdbf2c	0.10046229
66	0xbbbf755f	-0.005842849
67	0x3e919422	0.2843333
68	0x3ebcd9d2	0.36884934
69	0xbdb9f041	-0.09079028
70	0xbecc486b	-0.39899
71	0x3db8f9de	0.090320334
72	0xbe747224	-0.23871666
73	0xbeac7dcf	-0.33689734
74	0xbe0ebe4b	-0.13939779
75	0xbe8f5134	-0.2799164
76	0x3e30cbde	0.17265269
77	0x3df467ac	0.11933836
78	0xbeac8e16	-0.33702153
79	0x3aa59d00	0.0012635291
80	0xbe3e3277	-0.18573938
81	0x3e9ce20d	0.30641213
82	0x3e8cc7d8	0.2749622
83	0xbc6647b6	-0.014055183
84	0xbd2b12f6	-0.04176613
85	0xbeb25b49	-0.3483527
86	0xbe2ebce0	-0.17064238
87	0xbd406193	-0.046968054
88	0xbe411c79	-0.18858518
89	0xbea64777	-0.32476398
90	0xbe3e1a32	-0.1856468
91	0x3be5b2a4	0.007009821
92	0x3e223f08	0.15844357
93	0x3d010570	0.031499326
94	0x3c91f282	0.017815832
95	0x3ea22574	0.316692
96	0x3dbc548c	0.091958135
97	0xbe9d97e5	-0.3077995
98	0xbe67ebc7	-0.22648536
99	0xbe5df93b	-0.21677105
100	0x3e6f580a	0.23373428
101	0x3ea9da91	0.33174565
102	0xbe15da90	-0.14634156
103	0xbe8684e5	-0.26273265
104	0x3d640397	0.055667486
105	0xbe345ea8	-0.17614233
106	0x3e7af48a	0.24507347
107	0x3ee0e41f	0.43924043
108	0x3dbcbfe1	0.092162855
109	0x3ed78e6c	0.42100847
110	0x3e68bc09	0.2272798
111	0xbdb71bd5	-0.089408554
112	0xbe983319	-0.29726484
113	0x3d0073aa	0.031360306
114	0x3eda8d02	0.42685705
115	0xbd9d8e83	-0.076931976
116	0x3eae681c	0.34063804
117	0x3e13c94c	0.14432257
118	0x3e8c2c20	0.27377415
119	0xbd94fd16	-0.07274835
120	0x3e8f51d7	0.27992126
121	0xbd8331c6	-0.06405978
122	0x3ea98ec5	0.33116737
123	0x3e6e52cc	0.23273772
124	0x3e0ebecc	0.1393997
125	0x3e7ac5cf	0.2448952
126	0x3ee5b544	0.44864857
127	0xbdde6bd3	-0.108604096
128	0x3ce1a2ad	0.02754339
129	0x3bda121b	0.0066549904
130	0x3d0f6526	0.035008572
131	0xbe373074	-0.17889577
132	0x3c2198f6	0.009863129
133	0x3edbea40	0.42952156
134	0x3e3021c0	0.17200375
135	0x3e56f45f	0.20991658
136	0x3ec2f984	0.3808099
137	0x3d2be0df	0.0419625
138	0x3e07b3a3	0.1325212
139	0xbd28fd25	-0.041257042
140	0x3ea00cb1	0.31259683
141	0xbe5f7447	-0.218217
142	0xbd13683c	-0.035988078
143	0x3e4fe70b	0.2030298
144	0xbe3f6198	-0.18689573
145	0x3ebf892e	0.37409347
146	0x3ebf0e43	0.37315568
147	0x3e43cce1	0.19121124
148	0x3e8a4c73	0.2701145
149	0x3e4e3656	0.20137915
150	0x3ed43959	0.41450003
151	0xbd3a5495	-0.04549082
152	0x3ecd69f0	0.40119886
153	0x3e20ca59	0.1570219
154	0xbe4c236a	-0.19935384
155	0xbe657488	-0.22407734
156	0x3ecca0fd	0.39966574
157	0x3ce93758	0.028468773
158	0x3f355d55	0.7084554
159	0xbf568c6a	-0.83808005
160	0x3d8cb178	0.06869787
161	0xbe62e75f	-0.22158574
162	0x3e207534	0.1566971
163	0xbd723b3c	-0.05913852
164	0x3e55a6a6	0.20864353
165	0x3dbbf61d	0.09177802
166	0x3ea85f0e	0.3288502
167	0x3e271aba	0.16318789
168	0x3e672c04	0.22575384
169	0xbe3afc1f	-0.18260239
170	0x3d94d006	0.0726624
171	0x3ec7621c	0.3894204
172	0x3e73908c	0.23785609
173	0xbe1a28fa	-0.15054694
174	0x3e2a8d8b	0.16655557
175	0x3e8c49e9	0.2740014
176	0x3e691550	0.22762036
177	0x3d66a00a	0.05630497
178	0xbdb1f6dc	-0.08689663
179	0x3e8f0f0a	0.2794116
180	0x3d0de5f0	0.034643114
181	0x3e9ec638	0.31010604
182	0xbe02eacd	-0.12784882
183	0x3e743168	0.23846972
184	0x3eafc689	0.34331158
185	0x3e8a65b5	0.2703072
186	0x3d2dd1d8	0.04243645
187	0x3e000cd3	0.12504892
188	0x3e2e38fd	0.17013927
189	0x3bdc5717	0.006724249
190	0x3d22cefc	0.039748177
191	0x3e252a19	0.1612934
192	0xbe8e40e1	-0.27783874
193	0x3dda8727	0.106703095
194	0xbe9cd624	-0.30632126
195	0x3e9bba60	0.3041563
196	0x3dc5b9b7	0.09654563
197	0xbe243c60	-0.16038656
198	0x3ebd96af	0.37029025
199	0x3e45f626	0.1933218
200	0xbdcbb2bd	-0.09946201
201	0xbea85435	-0.32876745
202	0x3ea12bf9	0.3147886
203	0xbc504f37	-0.012714199
204	0x3d2eec26	0.042705677
205	0xbe4f95e0	-0.20272017
206	0xbe3ea643	-0.18618111
207	0x3e8356e7	0.2565224
208	0xbe0d9773	-0.13827305
209	0x3e7cd78b	0.24691598
210	0x3e103cda	0.14085713
211	0x3e51f2e4	0.20502812
212	0x3ee6565d	0.44987765
213	0x3e0c1e59	0.13683452
214	0xbe5ddc55	-0.21666081
215	0x3e9c9ef2	0.30590016
216	0x3eaa7911	0.3329549
217	0x3df15c00	0.11785126
218	0xbe65a7cf	-0.22427295
219	0x3ec4671e	0.38359922
220	0xbe981d72	-0.29709965
221	0x3f4223af	0.758357
222	0xbe9361fc	-0.28785694
223	0xbeef72eb	-0.46767363
224	0x3d0ae848	0.033912927
225	0x3ce15a0f	0.027508764
226	0xbe05c5fc	-0.13063806
227	0xbeb9c23a	-0.36280996
228	0x3d871e23	0.06597545
229	0xbeb9412a	-0.3618253
230	0x3e94afce	0.29040378
231	0x3d7391bd	0.05946516
232	0xbf322c77	-0.695991
233	0xbe92b7bb	-0.286558
234	0x3dc12715	0.094312824
235	0xbcc43900	-0.023952961
236	0xbdf6efd6	-0.12057464
237	0x3da47547	0.080301814
238	0x3f004b15	0.50114566
239	0x3d2f90ad	0.042862583
240	0xbf12efeb	-0.57397336
241	0x3daf0035	0.08544961
242	0xbdbe67e7	-0.092971615
243	0x3e6ee161	0.23328163
244	0xbd555263	-0.052080523
245	0x3e85b790	0.2611661
246	0x3e2bfbdb	0.16795294
247	0x3e6d874e	0.23196146
248	0x3eb884dd	0.36038867
249	0xbe119cff	-0.14220046
250	0x3e8555f9	0.26042154
251	0x3ec720fe	0.3889236
252	0x3e4ca765	0.19985731
253	0xbe20dfce	-0.15710375
254	0x3e92356d	0.28556386
255	0x3ef763db	0.4831837

fc1.bias f4 [32]
0	0xbd8dc0bf	-0.06921529
1	0xbe8f4e16	-0.27989262
2	0xbe9a93cb	-0.30190882
3	0x3e9cd630	0.30632162
4	0x3f10a942	0.56508267
5	0xbe4f1213	-0.20221739
6	0x3e8c3545	0.2738439
7	0xbdda919b	-0.10672303
8	0x3ea53ff0	0.32275343
9	0xbdbc19bc	-0.09184596
10	0xbeb96691	-0.36211064
11	0xbe86709d	-0.26257792
12	0xbeb0cafa	-0.3452986
13	0xbe89dc92	-0.26926094
14	0xbd9ad631	-0.07560385
15	0x3d7b469b	0.06134663
16	0xbd3a5c71	-0.045498315
17	0x3e58da7f	0.211771
18	0xbe06c4ff	-0.13161086
19	0x3da50286	0.08057122
20	0x3eb19072	0.34680516
21	0xbd7ac6b7	-0.061224665
22	0x3e8181be	0.25294298
23	0x3cfeaa17	0.031086965
24	0x3e4b857c	0.19875139
25	0x3e9c6b97	0.30550835
26	0x3df745da	0.1207387
27	0xbc7f3a3a	-0.015577847
28	0xbe3050e0	-0.17218351
29	0x3d9a6ac2	0.07539894
30	0xbbd5c192	-0.0065233195
31	0xbe7b86da	-0.2456316

fc2.weight f4 [2, 32]
0	0x3e77f64d	0.2421505
1	0x3dba788e	0.09105025
2	0xbdb7ffaa	-0.08984311
3	0x3e714188	0.23560154
4	0xbae4e59a	-0.0017463446
5	0x3eba29ca	0.36360008
6	0xbe3106a8	-0.17287695
7	0x3e9753d5	0.29556146
8	0x3d08dd7c	0.03341435
9	0xbdb71c57	-0.08940952
10	0xbc3a0a90	-0.011355057
11	0xbe1b243c	-0.15150541
12	0xbe065ea8	-0.13122046
13	0x3e4f7607	0.20259868
14	0x3e863e1c	0.2621926
15	0x3e7c9926	0.24667796
16	0x3ec76e74	0.38951457
17	0xbb2666c8	-0.0025390852
18	0x3dfe1bfe	0.12407683
19	0x3873ec27	5.815565e-05
20	0x3e100184	0.14063078
21	0x3e777403	0.24165349
22	0x3df4ca49	0.11952645
23	0x3d36eedc	0.044661388
24	0xbddd0302	-0.10791589
25	0xbe863c1e	-0.2621774
26	0x3e3573eb	0.1772
27	0x392466bf	0.00015678535
28	0xbe047276	-0.12934288
29	0xbd058594	-0.032598093
30	0x3e20fedf	0.15722226
31	0x3e9bc179	0.30421045
32	0x3e9318f3	0.28729972
33	0xbd7c032c	-0.061526462
34	0xbb498680	-0.0030750334
35	0xbe1f67ef	-0.15566991
36	0xbf418582	-0.7559434
37	0xbea615d5	-0.32438532
38	0x3ec4cb5b	0.38436398
39	0x3d80bb6c	0.06285748
40	0x3e5019e3	0.20322375
41	0x3dc74196	0.097293064
42	0xbdc69ae6	-0.09697513
43	0xbd0a886e	-0.033821516
44	0x3e180667	0.14846192
45	0xbdb140b2	-0.08654918
46	0xbd97ac55	-0.074059166
47	0xbcd56cac	-0.026052795
48	0xbe00b351	-0.12568404
49	0x3e531796	0.20614466
50	0xbca253b1	-0.019815298
51	0x3f8ece83	1.1156772
52	0x3dfb088d	0.1225749
53	0x3cf1b2ae	0.029504146
54	0x3d9ff859	0.078110404
55	0x3dda2931	0.10652388
56	0xbe2168aa	-0.15762582
57	0x3ea2a53e	0.31766695
58	0x3e162d81	0.14665796
59	0x3fb2ae75	1.395949
60	0xbdcf1de4	-0.10113123
61	0xbe9e669f	-0.3093767
62	0xbe7e3be5	-0.24827535
63	0x3e0e605e	0.13903949

fc2.bias f4 [2]
0	0x3dc9193a	0.09819265
1	0x3dc1e689	0.09467799
